{"format": "layers-model", "generatedBy": "keras v2.3.1", "convertedBy": "TensorFlow.js Converter v2.0.1.post1", "modelTopology": {"keras_version": "2.3.1", "backend": "tensorflow", "model_config": {"class_name": "Model", "config": {"name": "encoder", "layers": [{"name": "encoder_input", "class_name": "InputLayer", "config": {"batch_input_shape": [null, 72, 72, 3], "dtype": "float32", "sparse": false, "name": "encoder_input"}, "inbound_nodes": []}, {"name": "conv2d_1", "class_name": "Conv2D", "config": {"name": "conv2d_1", "trainable": true, "dtype": "float32", "filters": 16, "kernel_size": [4, 4], "strides": [2, 2], "padding": "same", "data_format": "channels_last", "dilation_rate": [1, 1], "activation": "relu", "use_bias": true, "kernel_initializer": {"class_name": "VarianceScaling", "config": {"scale": 1.0, "mode": "fan_avg", "distribution": "uniform", "seed": null}}, "bias_initializer": {"class_name": "Zeros", "config": {}}, "kernel_regularizer": null, "bias_regularizer": null, "activity_regularizer": null, "kernel_constraint": null, "bias_constraint": null}, "inbound_nodes": [[["encoder_input", 0, 0, {}]]]}, {"name": "batch_normalization_1", "class_name": "BatchNormalization", "config": {"name": "batch_normalization_1", "trainable": true, "dtype": "float32", "axis": -1, "momentum": 0.99, "epsilon": 0.001, "center": true, "scale": true, "beta_initializer": {"class_name": "Zeros", "config": {}}, "gamma_initializer": {"class_name": "Ones", "config": {}}, "moving_mean_initializer": {"class_name": "Zeros", "config": {}}, "moving_variance_initializer": {"class_name": "Ones", "config": {}}, "beta_regularizer": null, "gamma_regularizer": null, "beta_constraint": null, "gamma_constraint": null}, "inbound_nodes": [[["conv2d_1", 0, 0, {}]]]}, {"name": "conv2d_2", "class_name": "Conv2D", "config": {"name": "conv2d_2", "trainable": true, "dtype": "float32", "filters": 32, "kernel_size": [4, 4], "strides": [2, 2], "padding": "same", "data_format": "channels_last", "dilation_rate": [1, 1], "activation": "relu", "use_bias": true, "kernel_initializer": {"class_name": "VarianceScaling", "config": {"scale": 1.0, "mode": "fan_avg", "distribution": "uniform", "seed": null}}, "bias_initializer": {"class_name": "Zeros", "config": {}}, "kernel_regularizer": null, "bias_regularizer": null, "activity_regularizer": null, "kernel_constraint": null, "bias_constraint": null}, "inbound_nodes": [[["batch_normalization_1", 0, 0, {}]]]}, {"name": "batch_normalization_2", "class_name": "BatchNormalization", "config": {"name": "batch_normalization_2", "trainable": true, "dtype": "float32", "axis": -1, "momentum": 0.99, "epsilon": 0.001, "center": true, "scale": true, "beta_initializer": {"class_name": "Zeros", "config": {}}, "gamma_initializer": {"class_name": "Ones", "config": {}}, "moving_mean_initializer": {"class_name": "Zeros", "config": {}}, "moving_variance_initializer": {"class_name": "Ones", "config": {}}, "beta_regularizer": null, "gamma_regularizer": null, "beta_constraint": null, "gamma_constraint": null}, "inbound_nodes": [[["conv2d_2", 0, 0, {}]]]}, {"name": "conv2d_3", "class_name": "Conv2D", "config": {"name": "conv2d_3", "trainable": true, "dtype": "float32", "filters": 64, "kernel_size": [4, 4], "strides": [2, 2], "padding": "same", "data_format": "channels_last", "dilation_rate": [1, 1], "activation": "relu", "use_bias": true, "kernel_initializer": {"class_name": "VarianceScaling", "config": {"scale": 1.0, "mode": "fan_avg", "distribution": "uniform", "seed": null}}, "bias_initializer": {"class_name": "Zeros", "config": {}}, "kernel_regularizer": null, "bias_regularizer": null, "activity_regularizer": null, "kernel_constraint": null, "bias_constraint": null}, "inbound_nodes": [[["batch_normalization_2", 0, 0, {}]]]}, {"name": "batch_normalization_3", "class_name": "BatchNormalization", "config": {"name": "batch_normalization_3", "trainable": true, "dtype": "float32", "axis": -1, "momentum": 0.99, "epsilon": 0.001, "center": true, "scale": true, "beta_initializer": {"class_name": "Zeros", "config": {}}, "gamma_initializer": {"class_name": "Ones", "config": {}}, "moving_mean_initializer": {"class_name": "Zeros", "config": {}}, "moving_variance_initializer": {"class_name": "Ones", "config": {}}, "beta_regularizer": null, "gamma_regularizer": null, "beta_constraint": null, "gamma_constraint": null}, "inbound_nodes": [[["conv2d_3", 0, 0, {}]]]}, {"name": "flatten_1", "class_name": "Flatten", "config": {"name": "flatten_1", "trainable": true, "dtype": "float32", "data_format": "channels_last"}, "inbound_nodes": [[["batch_normalization_3", 0, 0, {}]]]}, {"name": "dense_1", "class_name": "Dense", "config": {"name": "dense_1", "trainable": true, "dtype": "float32", "units": 20, "activation": "relu", "use_bias": true, "kernel_initializer": {"class_name": "VarianceScaling", "config": {"scale": 1.0, "mode": "fan_avg", "distribution": "uniform", "seed": null}}, "bias_initializer": {"class_name": "Zeros", "config": {}}, "kernel_regularizer": null, "bias_regularizer": null, "activity_regularizer": null, "kernel_constraint": null, "bias_constraint": null}, "inbound_nodes": [[["flatten_1", 0, 0, {}]]]}, {"name": "batch_normalization_4", "class_name": "BatchNormalization", "config": {"name": "batch_normalization_4", "trainable": true, "dtype": "float32", "axis": -1, "momentum": 0.99, "epsilon": 0.001, "center": true, "scale": true, "beta_initializer": {"class_name": "Zeros", "config": {}}, "gamma_initializer": {"class_name": "Ones", "config": {}}, "moving_mean_initializer": {"class_name": "Zeros", "config": {}}, "moving_variance_initializer": {"class_name": "Ones", "config": {}}, "beta_regularizer": null, "gamma_regularizer": null, "beta_constraint": null, "gamma_constraint": null}, "inbound_nodes": [[["dense_1", 0, 0, {}]]]}, {"name": "latent_mu", "class_name": "Dense", "config": {"name": "latent_mu", "trainable": true, "dtype": "float32", "units": 9, "activation": "linear", "use_bias": true, "kernel_initializer": {"class_name": "VarianceScaling", "config": {"scale": 1.0, "mode": "fan_avg", "distribution": "uniform", "seed": null}}, "bias_initializer": {"class_name": "Zeros", "config": {}}, "kernel_regularizer": null, "bias_regularizer": null, "activity_regularizer": null, "kernel_constraint": null, "bias_constraint": null}, "inbound_nodes": [[["batch_normalization_4", 0, 0, {}]]]}, {"name": "latent_sigma", "class_name": "Dense", "config": {"name": "latent_sigma", "trainable": true, "dtype": "float32", "units": 9, "activation": "linear", "use_bias": true, "kernel_initializer": {"class_name": "VarianceScaling", "config": {"scale": 1.0, "mode": "fan_avg", "distribution": "uniform", "seed": null}}, "bias_initializer": {"class_name": "Zeros", "config": {}}, "kernel_regularizer": null, "bias_regularizer": null, "activity_regularizer": null, "kernel_constraint": null, "bias_constraint": null}, "inbound_nodes": [[["batch_normalization_4", 0, 0, {}]]]}, {"name": "z", "class_name": "Lambda", "config": {"name": "z", "trainable": true, "dtype": "float32", "function": ["4wEAAAAAAAAABgAAAAQAAABDAAAAc0oAAAB8AFwCfQF9AnQAagF8AYMBZAEZAH0DdABqAnwBgwFk\nAhkAfQR0AGoDfAN8BGYCZAONAX0FfAF0AGoEfAJkBBsAgwF8BRQAFwBTACkFTukAAAAA6QEAAAAp\nAdoFc2hhcGXpAgAAACkF2gFLcgMAAADaCWludF9zaGFwZdoNcmFuZG9tX25vcm1hbNoDZXhwKQba\nBGFyZ3PaAm112gVzaWdtYdoFYmF0Y2jaA2RpbdoDZXBzqQByDwAAAPoePGlweXRob24taW5wdXQt\nNi00YzgyYWRiZmFmNWY+2ghzYW1wbGVfehcAAABzCgAAAAABCAEOAQ4BEAE=\n", null, null], "function_type": "lambda", "output_shape": [9], "output_shape_type": "raw", "arguments": {}}, "inbound_nodes": [[["latent_mu", 0, 0, {}], ["latent_sigma", 0, 0, {}]]]}], "input_layers": [["encoder_input", 0, 0]], "output_layers": [["latent_mu", 0, 0], ["latent_sigma", 0, 0], ["z", 0, 0]]}}}, "weightsManifest": [{"paths": ["group1-shard1of1.bin"], "weights": [{"name": "batch_normalization_1/gamma", "shape": [16], "dtype": "float32"}, {"name": "batch_normalization_1/beta", "shape": [16], "dtype": "float32"}, {"name": "batch_normalization_1/moving_mean", "shape": [16], "dtype": "float32"}, {"name": "batch_normalization_1/moving_variance", "shape": [16], "dtype": "float32"}, {"name": "batch_normalization_2/gamma", "shape": [32], "dtype": "float32"}, {"name": "batch_normalization_2/beta", "shape": [32], "dtype": "float32"}, {"name": "batch_normalization_2/moving_mean", "shape": [32], "dtype": "float32"}, {"name": "batch_normalization_2/moving_variance", "shape": [32], "dtype": "float32"}, {"name": "batch_normalization_3/gamma", "shape": [64], "dtype": "float32"}, {"name": "batch_normalization_3/beta", "shape": [64], "dtype": "float32"}, {"name": "batch_normalization_3/moving_mean", "shape": [64], "dtype": "float32"}, {"name": "batch_normalization_3/moving_variance", "shape": [64], "dtype": "float32"}, {"name": "batch_normalization_4/gamma", "shape": [20], "dtype": "float32"}, {"name": "batch_normalization_4/beta", "shape": [20], "dtype": "float32"}, {"name": "batch_normalization_4/moving_mean", "shape": [20], "dtype": "float32"}, {"name": "batch_normalization_4/moving_variance", "shape": [20], "dtype": "float32"}, {"name": "conv2d_1/kernel", "shape": [4, 4, 3, 16], "dtype": "float32"}, {"name": "conv2d_1/bias", "shape": [16], "dtype": "float32"}, {"name": "conv2d_2/kernel", "shape": [4, 4, 16, 32], "dtype": "float32"}, {"name": "conv2d_2/bias", "shape": [32], "dtype": "float32"}, {"name": "conv2d_3/kernel", "shape": [4, 4, 32, 64], "dtype": "float32"}, {"name": "conv2d_3/bias", "shape": [64], "dtype": "float32"}, {"name": "dense_1/kernel", "shape": [5184, 20], "dtype": "float32"}, {"name": "dense_1/bias", "shape": [20], "dtype": "float32"}, {"name": "latent_mu/kernel", "shape": [20, 9], "dtype": "float32"}, {"name": "latent_mu/bias", "shape": [9], "dtype": "float32"}, {"name": "latent_sigma/kernel", "shape": [20, 9], "dtype": "float32"}, {"name": "latent_sigma/bias", "shape": [9], "dtype": "float32"}]}]}